model/numbers.onnx (onnx, 503875 bytes, 4 tensors)

conv1.0.weight f4 [32, 1, 3, 3]
-0.9560949 -0.8377076 -0.6854153 1.2053478 1.5438725 -0.8910084 -1.0301621 -1.6541396
-2.6153111 0.4549045 0.4685448 -1.4616528 -0.31234065 1.3054923 -0.073981844 -0.55184376
-0.29871327 0.90849096 -1.1229107 -0.887101 -1.1509924 1.1700504 0.22306144 -0.96133584
0.46177766 -0.8437398 -1.8544842 -1.3621428 0.5730538 0.3200475 0.13207945 0.27555192
-0.17353164 0.9256692 -0.63570464 -0.83676493 -1.3017915 0.393774 0.17459247 -1.0276978
0.62993467 0.6377566 -1.0819834 -1.0846343 -0.9742071 0.36276847 -0.58729935 -0.10701409
0.17060718 -1.9335372 -0.6452557 0.71843505 -1.5440583 1.12519 0.8557781 0.577031
-0.03581792 0.1537149 -0.85665834 0.46016213 0.079058915 -1.1777083 1.2424624 -1.3838065
1.5383791 -0.81548566 -1.5398538 1.003075 -1.2391723 -4.0128417 -4.653993 -2.2076533
-2.0036066 -1.0899142 -0.46379194 -0.1538567 -0.21684393 0.9024891 0.8141112 -0.06774888
0.11325711 -0.29424056 1.1807524 -0.38917732 -2.672494 -1.1836385 -0.92228055 -0.3593847
-0.3013198 0.06464259 0.3241365 -0.4106461 -1.4525195 0.61964196 0.5849875 -4.407253
-0.14509007 -1.3062813 -1.4437801 -3.1082296 -0.0134917535 0.7411217 -0.24101564 -0.43438777
0.032561675 -0.6835543 -0.29259172 0.72617453 0.08315737 0.5276773 0.47970062 -0.9013329
0.22474325 -0.24528784 -0.34503898 -1.3874398 -1.6466839 -3.584442 -2.3269622 -0.7837174
-0.5750688 0.9674298 -1.8417809 0.48573032 0.76425135 -0.5223393 -0.072887905 0.8928411
0.48542124 0.5016979 -0.75118357 -1.3484209 0.94274586 -0.04032103 0.37830916 0.18909346
-0.14614522 -0.5978005 -0.16931829 -0.24614479 -0.1080876 -0.6219293 -0.12983684 -0.47228897
-0.07169911 0.038518086 -0.17744428 -0.092139244 -0.24611904 -0.3378246 -0.10312416 -0.04447819
-0.394161 0.025666857 -0.10328855 0.16347833 -0.34924832 -0.1767481 -0.0015590638 -0.12909417
0.12578335 -0.32200962 -0.3352265 -0.1438852 -0.05099042 0.018866839 0.14083058 -0.042321436
-0.12696962 -0.20311493 0.04350614 -1.9763317 -1.3666391 -0.79482985 -2.4488006 0.04014827
0.89137745 -2.5046854 -0.6065555 0.29836747 0.3045579 -0.63546556 -0.12403346 -0.5430851
0.12804428 -0.17730913 -0.517234 -0.29122508 -0.10805362 -0.082870945 0.0031321957 0.06568587
0.1254596 -0.38834113 0.05507251 -0.3402068 -0.024753027 0.1648062 0.13095368 0.85328716
-0.7529152 -0.03853717 1.1794928 -1.8996195 -2.0658174 -2.0140896 -0.23840989 -1.1326753
-0.5876586 -0.80396485 -0.39143687 0.08347714 -1.6656405 -1.5807499 1.3094298 0.03797486
0.103659324 -0.23111424 -0.00810675 -1.0453056 0.19093792 -0.90413606 -1.310053 1.8571763
-1.3180372 -0.3049335 -1.3396916 0.11873953 -0.035238575 0.6735044 1.0474464 0.81853014
-0.6611676 -0.84953743 0.3701646 -2.029908 -0.21825089 -1.57251 -0.16497648 1.0909234
-0.885414 -2.5267196 -0.4537415 0.12768473 0.9986924 -0.32835975 -0.5910013 -0.50227505
0.31726134 -0.733916 0.08913066 0.78016496 -1.8613486 -2.522071 -0.6755358 0.065344915
00000000: a3c2 74bf 0174 56bf 6177 2fbf d648 9a3f
00000010: 9d9d c53f 2019 64bf 5adc 83bf d9ba d3bf
00000020: 4261 27c0 3ee9 e83e 1be5 ef3e 7017 bbbf
00000030: 1deb 9fbe 5f1a a73f cb83 97bd a245 0dbf
00000040: f2f0 98be dd92 683f 8abb 8fbf 0d19 63bf
00000050: b853 93bf 36c4 953f 386a 643e 1b1a 76bf
00000060: 1f6e ec3e 55ff 57bf bd5f edbf b25a aebf
00000070: a7b3 123f 44dd a33e d63f 073e 2415 8d3e
00000080: 47b2 31be a8f8 6c3f 8abd 22bf 3a36 56bf
00000090: 1ba1 a6bf bf9c c93e 5ec8 323e 9a8b 83bf
000000a0: 6643 213f 0444 233f 6f7e 8abf 4cd5 8abf
000000b0: a365 79bf cabc b93e 4059 16bf 342a dbbd
000000c0: a6b3 2e3e 267e f7bf 7a2f 25bf 5ceb 373f
000000d0: b4a3 c5bf 3a06 903f 4614 5b3f 4eb8 133f
000000e0: d0b5 12bd 7067 1d3e f64d 5bbf 5f9a eb3e
000000f0: a4e9 a13d 25bf 96bf 0209 9f3f 9220 b1bf
00000100: 9be9 c43f abc3 50bf ee19 c5bf c364 803f
00000110: 339d 9ebf 3369 80c0 83ed 94c0 314a 0dc0
00000120: 173b 00c0 4f82 8bbf 2376 edbe 9c8c 1dbe
00000130: 560c 5ebe 8709 673f 9769 503f edbf 8abd
00000140: 58f3 e73d b3a6 96be e522 973f 4042 c7be
00000150: 240a 2bc0 7781 97bf 941a 6cbf 4501 b8be
00000160: 9746 9abe 5663 843d 38f5 a53e 3540 d2be
00000170: 29ec b9bf dba0 1e3f bec1 153f 3708 8dc0
00000180: 7e92 14be 3a34 a7bf c9cd b8bf 3ced 46c0
00000190: 840c 5dbc 27ba 3d3f cecc 76be 1368 debe
000001a0: 645f 053d 6afd 2ebf 95ce 95be 93e6 393f
000001b0: 694e aa3d dc15 073f 529b f53e c1bd 66bf
000001c0: 1823 663e bc2c 7bbe f3a8 b0be a197 b1bf
000001d0: 8ac6 d2bf 7f67 65c0 f3ec 14c0 b4a1 48bf
000001e0: b537 13bf 7ba9 773f 7abf ebbf a5b1 f83e
000001f0: faa5 433f 07b8 05bf 4146 95bd 3c91 643f
00000200: 2289 f83e 466f 003f 914d 40bf 0e99 acbf
00000210: cb57 713f aa27 25bd bdb1 c13e b7a1 413e
00000220: 18a7 15be 7409 19bf c661 2dbe 610d 7cbe
00000230: 085d ddbd c236 1fbf f3f3 04be dccf f1be
00000240: fcd6 92bd 24c5 1d3d f4b3 35be 80b3 bcbd
00000250: a106 7cbe 59f7 acbe c232 d3bd c32e 36bd
00000260: 78cf c9be 4d43 d23c f388 d3bd dd66 273e
00000270: add0 b2be 74fd 34be 8059 ccba 4331 04be
00000280: 5acd 003e 72de a4be cfa2 abbe a456 13be
00000290: 55db 50bd a18e 9a3c e435 103e 3e59 2dbd
000002a0: 5304 02be 5cfd 4fbe 7f33 323d 70f8 fcbf
000002b0: 08ee aebf f879 4bbf 26b9 1cc0 8372 243d
000002c0: 5031 643f c44c 20c0 3947 1bbf 9fc3 983e
000002d0: 03ef 9b3e dfad 22bf 4105 febd a007 0bbf
000002e0: 0a1e 033e 8690 35be 7369 04bf 741b 95be
000002f0: 374b ddbd 3eb8 a9bd 8645 4d3b 5086 863d
00000300: 7b78 003e a6d4 c6be b693 613d 962f aebe
00000310: dcc6 cabc f5c2 283e b918 063e 0771 5a3f
00000320: 0dbf 40bf 27d9 1dbd 9ff9 963f bb26 f3bf
00000330: 5a36 04c0 d8e6 00c0 b921 74be 81fb 90bf
00000340: cb70 16bf a4d0 4dbf 6a6a c8be 10f6 aa3d
00000350: b533 d5bf 0356 cabf 659b a73f 878b 1b3d
00000360: 574b d43d 36a9 6cbe 2dd2 04bc 93cc 85bf
00000370: 3b85 433e 7675 67bf d1af a7bf f4b7 ed3f
00000380: 71b5 a8bf 3e20 9cbe 047b abbf b62d f33d
00000390: 5356 10bd c96a 2c3f b912 863f 318b 513f
000003a0: 4842 29bf 497b 59bf 3786 bd3e 03ea 01c0
000003b0: 297d 5fbe 0248 c9bf 98ef 28be 61a3 8b3f
000003c0: 7eaa 62bf c6b5 21c0 ce50 e8be c9bf 023e
000003d0: 4eaa 7f3f c51e a8be dc4b 17bf 1995 00bf
000003e0: 1470 a23e ebe1 3bbf 238a b63d e4b8 473f
000003f0: ac40 eebf 9c69 21c0 eaef 2cbf 8ed3 853d

conv1.0.bias f4 [32]
-0.065728344 -1.0712696 -0.076955445 -0.6452731 -0.03310246 -0.5876824 -1.3038049 0.056470342
-0.8797576 -0.124928534 -0.16109937 -0.5206443 -0.065455474 -0.03617924 -1.3714713 -0.19684774
-0.086982705 -0.28092024 -0.29826 -0.10861315 -0.37919113 -0.40660015 -0.037483692 -0.10010771
-0.09307317 -0.61163926 -0.12557279 -0.9044618 -0.07501187 -0.08416416 -0.75687146 -0.018434763
00000000: 959c 86bd 5d1f 89bf d19a 9dbd 9e30 25bf
00000010: 7296 07bd 5b72 16bf 14e3 a6bf 724d 673d
00000020: cb37 61bf 88da ffbd 3cf7 24be f248 05bf
00000030: 850d 86bd af30 14bd 5f8c afbf 7492 49be
00000040: fd23 b2bd c7d4 8fbe 89b5 98be 9270 debd
00000050: 5725 c2be e52d d0be 8088 19bd 4505 cdbd
00000060: 259d bebd 6494 1cbf 2796 00be cf8a 67bf
00000070: d39f 99bd 425e acbd 54c2 41bf 8004 97bc

linear.1.weight f4 [10, 12544]
-0.05342707 -0.06358374 -0.057587385 -0.058965687 -0.04867491 -0.06436057 0.20096245 0.119827196
-0.08616603 -0.07633499 -0.0054164957 -0.048802614 -0.04817961 -0.05302047 -0.049346782 -0.053403247
-0.057057776 -0.05331686 -0.053013306 -0.055311047 0.17579754 -0.02449269 0.21568617 0.07590717
-0.06432682 -0.049936123 -0.04962974 -0.051139638 -0.04887117 -0.05514686 -0.07056729 -0.1653693
0.38024318 -0.0114104105 -0.55496496 0.21375035 -0.5646227 -0.30083984 0.7591537 -0.13974062
0.009930408 -0.014244352 -0.06348589 -0.05171313 -0.2989619 0.25063342 0.33000797 -0.5532971
-0.1610487 -0.249388 -0.419845 -0.8193233 -0.30140546 0.14875886 0.3351022 0.090252824
-0.05298355 -0.07667314 -0.21992686 -0.25501186 -0.013181971 0.08937172 0.66057414 0.30706292
0.03489772 -0.17892262 -0.17496686 -0.50882554 -0.06419527 0.39629093 -0.05560726 -0.1434151
-0.052825615 -0.38806558 -0.65903157 -0.28803903 0.23941891 0.2695549 -0.22431566 -0.28372732
0.7923569 -0.8582358 -0.9321079 -0.104094796 -0.044384748 -0.045920253 -0.13554144 0.049735613
-0.12899467 -0.20702483 0.73638695 0.37992814 0.3508324 0.74698055 0.221311 -0.32521278
0.9501437 0.49690682 -0.5418073 -0.016084606 0.26632372 0.08625894 0.25828707 -0.028189661
-0.11075286 0.3208583 0.0679084 0.9802313 0.46757662 -0.123527214 0.057488576 0.9321424
0.00097540405 -0.15628785 -0.21885452 0.3185334 -0.42684728 -0.30121022 0.37785512 0.43588233
-0.033650137 0.058888998 -0.26422194 -0.67756397 -0.12426758 -0.33969033 0.008347607 0.037157185
-0.17396873 -0.3790757 0.27856144 -0.11023075 1.3857573 0.5857199 -0.40100303 -0.2035222
1.2386292 0.48562986 0.020560639 0.047437556 -0.002827142 0.50099707 0.36454704 -0.030772215
0.26149902 -0.08351906 -0.05137262 0.16262798 -0.030168224 -0.013136903 0.3707918 0.5077453
-0.29195508 -0.7073055 0.17527886 0.4714405 1.1263907 0.67433625 0.30786481 0.120156184
-0.31577316 -0.36113563 -0.6425566 -0.09732131 0.60592556 0.4963207 -0.019494273 -0.707098
-0.05227315 -0.05941962 0.01932247 -0.13420588 0.69398075 -0.0710729 0.1963592 -0.33088332
-0.1154048 0.20844014 0.7309453 0.7248958 -0.4224499 -0.27094802 -0.05204321 -0.27735323
0.63142234 -0.27367184 0.0889431 0.34420103 -0.25999707 -0.31541175 0.4414029 -0.90804315
1.1344743 0.52307254 -0.39335054 -0.13251425 -0.06282453 -0.058415648 0.002920415 -0.14733233
-0.016939199 -0.60409206 0.3011166 0.32471293 -0.46768457 -0.32788005 -0.24424621 0.76895076
-0.4634225 -0.34492135 -0.060875107 -0.05542851 0.26742658 0.6690678 0.28999048 -0.87091106
0.44432575 -0.4490986 0.20359518 0.14099397 0.11627884 0.63505924 -0.096474856 -0.5208779
-0.06533456 -0.09037698 -0.04483053 -0.2502802 -1.515874 0.0060570436 0.15719166 0.55647725
-0.533238 -1.130233 -0.5409727 -0.39126182 -1.597222 -0.20794898 0.16793866 -0.1813797
-0.20190683 -0.16503522 -1.1163275 -0.683403 -0.74415445 -0.02040353 -0.46332705 0.60589325
-0.7286558 0.08700517 -0.23439357 -0.1568233 -0.06402985 -0.08981516 -0.013901602 -0.4231069
00000000: 58d6 5abd 3138 82bd c0e0 6bbd 0186 71bd
00000010: 585f 47bd 79cf 83bd 1ac9 4d3e f667 f53d
00000020: d177 b0bd 8555 9cbd dc7c b1bb 40e5 47bd
00000030: fc57 45bd fe2b 59bd da1f 4abd 5dbd 5abd
00000040: 6ab5 69bd c862 5abd 7b24 59bd d68d 62bd
00000050: 4504 343e e5a4 c8bc d6dc 5c3e 3875 9b3d
00000060: c8bd 83bd d289 4cbd 8e48 4bbd cc77 51bd
00000070: 232d 48bd ade1 61bd 9585 90bd 9256 29be
00000080: 3caf c23e bbf2 3abc 2f12 0ebf 5fe1 5a3e
00000090: 1d8b 10bf ae07 9abe e657 423f 2a18 0fbe
000000a0: 26b3 223c 2461 69bc e404 82bd 26d1 53bd
000000b0: 8911 99be 0653 803e cef6 a83e e1a4 0dbf
000000c0: f3e9 24be 915f 7fbe edf5 d6be 2cbf 51bf
000000d0: d151 9abe 3e54 183e 8492 ab3e 79d6 b83d
000000e0: 4705 59bd cf06 9dbd 8234 61be ea90 82be
000000f0: 32f9 57bc 8508 b73d 631b 293f 5a37 9d3e
00000100: e9f0 0e3d 7e37 37be 832a 33be 6442 02bf
00000110: cf78 83bd a5e6 ca3e 70c4 63bd 68db 12be
00000120: ac5f 58bd 88b0 c6be 4bb6 28bf da79 93be
00000130: 3b2a 753e 1a03 8a3e 01b3 65be b544 91be
00000140: e7d7 4a3f 57b5 5bbf a09e 6ebf a72f d5bd
00000150: c8cc 35bd e016 3cbd 60cb 0abe 92b7 4b3d
00000160: 2e17 04be 51fe 53be db83 3c3f f185 c23e
00000170: 4ea0 b33e 1e3a 3f3f 5a9f 623e 4a82 a6be
00000180: 9e3c 733f 926a fe3e e2b3 0abf ddc3 83bc
00000190: 955b 883e 87a8 b03d 343e 843e 01ee e6bc
000001a0: 65d2 e2bd 8a47 a43e 8f13 8b3d 70f0 7a3f
000001b0: 3466 ef3e d6fb fcbd 2479 6b3d e2a0 6e3f
000001c0: 42b2 7f3a ec09 20be 661b 60be cf16 a33e
000001d0: ba8b dabe 3a38 9abe 3a76 c13e f82b df3e
000001e0: bad4 09bd 9735 713d 1948 87be d574 2dbf
000001f0: 0080 febd e4eb adbe 67c4 083c 2232 183d
00000200: dc24 32be 3616 c2be 9b9f 8e3e a9c0 e1bd
00000210: 7f60 b13f bdf1 153f 4550 cdbe 2068 50be
00000220: 678b 9e3f 7aa4 f83e c96e a83c e24d 423d
00000230: 9247 39bb 5841 003f e9a5 ba3e 0316 fcbc
00000240: 33e3 853e 0a0c abbd 196c 52bd f387 263e
00000250: 5a23 f7bc 2a3c 57bc 6cd8 bd3e 99fb 013f
00000260: 237b 95be f911 35bf 4d7c 333e a660 f13e
00000270: 922d 903f 4da1 2c3f 75a0 9d3e 7214 f63d
00000280: 05ad a1be c5e6 b8be 977e 24bf 6550 c7bd
00000290: f01d 1b3f bf1d fe3e 74b2 9fbc 6004 35bf
000002a0: 5f1c 56bd fd61 73bd 284a 9e3c 446d 09be
000002b0: b9a8 313f ab8e 91bd 6312 493e 8a69 a9be
000002c0: 5a59 ecbd 5571 553e 3b1f 3b3f c592 393f
000002d0: 5a4b d8be b3b9 8abe 432b 55bd 3e01 8ebe
000002e0: e5a4 213f b71e 8cbe cd27 b63d 1e3b b03e
000002f0: 561e 85be a67d a1be 90ff e13e 8475 68bf
00000300: 7436 913f 15e8 053f 3e65 c9be d1b1 07be
00000310: 26aa 80bd 3f45 6fbd 6f64 3f3b 49de 16be
00000320: 13c4 8abc c7a5 1abf f42b 9a3e c640 a63e
00000330: 5a74 efbe e5df a7be ae1b 7abe f5d9 443f
00000340: b745 edbe 8899 b0be 2d58 79bd 0109 63bd
00000350: 23ec 883e 0748 2b3f a279 943e 07f4 5ebf
00000360: aa7e e33e 40f0 e5be 417b 503e b960 103e
00000370: 9a23 ee3d 3e93 223f 9c94 c5bd 4158 05bf
00000380: 20ce 85bd 9117 b9bd 38a0 37bd ba24 80be
00000390: 2908 c2bf 2a7a c63b daf6 203e 4b75 0e3f
000003a0: 4982 08bf 7aab 90bf 307d 0abf 7853 c8be
000003b0: c571 ccbf 94f0 54be 1df8 2b3e 9abb 39be
000003c0: aac0 4ebe fefe 28be d2e3 8ebf 80f3 2ebf
000003d0: e880 3ebf 4e25 a7bc 3439 edbe d21b 1b3f
000003e0: 3089 3abf c42f b23d de04 70be 4a96 20be
000003f0: 1522 83bd 03f1 b7bd 8bc3 63bc 78a1 d8be

linear.1.bias f4 [10]
0.037479606 1.4980749 -0.016130997 -0.97685504 -0.9829712 0.076132625 -0.025110517 0.09523699
-1.4006355 -1.0422188
00000000: 3784 193d ebc0 bf3f 2725 84bc 2c13 7abf
00000010: 00a4 7bbf 6ceb 9b3d 92b4 cdbc 9c0b c33d
00000020: 0648 b3bf 6d67 85bf
